…
":1644594460031,"user":{"displayName":"Kirill Volkov","photoUrl":"https://lh3.googleusercontent.com/a/default-user=s64","userId":"09167675469754145494"},"user_tz":-180},"outputId":"8f708383-0799-4324-eab0-de9739d0bf5d"},"source":["model.summary()"],"execution_count":null,"outputs":[{"output_type":"stream","name":"stdout","text":["Model: \"sequential_1\"\n","_________________________________________________________________\n"," Layer (type)                Output Shape              Param #   \n","=================================================================\n"," batch_normalization (BatchN  (None, 32, 32, 3)        12        \n"," ormalization)                                                   \n","                                                                 \n"," conv2d (Conv2D)             (None, 32, 32, 32)        896       \n","                                                                 \n"," conv2d_1 (Conv2D)           (None, 32, 32, 32)        9248      \n","                                                                 \n"," max_pooling2d (MaxPooling2D  (None, 16, 16, 32)       0         \n"," )                                                               \n","                                                                 \n"," dropout (Dropout)           (None, 16, 16, 32)        0         \n","                                                                 \n"," batch_normalization_1 (Batc  (None, 16, 16, 32)       128       \n"," hNormalization)                                                 \n","                                                                 \n"," conv2d_2 (Conv2D)           (None, 16, 16, 64)        18496     \n","                                                                 \n"," conv2d_3 (Conv2D)           (None, 16, 16, 64)        36928     \n","                                                                 \n"," max_pooling2d_1 (MaxPooling  (None, 8, 8, 64)         0         \n"," 2D)                                                             \n","                                                                 \n"," dropout_1 (Dropout)         (None, 8, 8, 64)          0         \n","                                                                 \n"," batch_normalization_2 (Batc  (None, 8, 8, 64)         256       \n"," hNormalization)                                                 \n","                                                                 \n"," conv2d_4 (Conv2D)           (None, 8, 8, 128)         73856     \n","                                                                 \n"," conv2d_5 (Conv2D)           (None, 8, 8, 128)         147584    \n","                                                                 \n"," max_pooling2d_2 (MaxPooling  (None, 4, 4, 128)        0         \n"," 2D)                                                             \n","                                                                 \n"," dropout_2 (Dropout)         (None, 4, 4, 128)         0         \n","                                                                 \n"," flatten (Flatten)           (None, 2048)              0         \n","                                                                 \n"," dense_3 (Dense)             (None, 512)               1049088   \n","                                                                 \n"," dropout_3 (Dropout)         (None, 512)               0         \n","                                                                 \n"," dense_4 (Dense)             (None, 10)                5130      \n","                                                                 \n","=================================================================\n","Total params: 1,341,622\n","Trainable params: 1,341,424\n","Non-trainable params: 198\n","_________________________________________________________________\n"]}]},{"cell_type":"markdown","metadata":{"id":"8cCZnsz2u7lE"},"source":["Скомпилируйте моде
…
