…
s=class_labels, \n","               title=title,\n","               figsize=cm_size)"]},{"cell_type":"code","execution_count":null,"metadata":{"id":"yrDPWHZj_Jnc","colab":{"base_uri":"https://localhost:8080/","height":1000},"outputId":"0ee2023b-1058-4130-99d4-3e2fc1e92aca"},"outputs":[{"output_type":"stream","name":"stdout","text":["Model: \"sequential\"\n","_________________________________________________________________\n"," Layer (type)                Output Shape              Param #   \n","=================================================================\n"," dense (Dense)               (None, 100)               2000100   \n","                                                                 \n"," dropout (Dropout)           (None, 100)               0         \n","                                                                 \n"," dense_1 (Dense)             (None, 100)               10100     \n","                                                                 \n"," dropout_1 (Dropout)         (None, 100)               0         \n","                                                                 \n"," dense_2 (Dense)             (None, 100)               10100     \n","                                                                 \n"," dropout_2 (Dropout)         (None, 100)               0         \n","                                                                 \n"," dense_3 (Dense)             (None, 20)                2020      \n","                                                                 \n","=================================================================\n","Total params: 2,022,320\n","Trainable params: 2,022,320\n","Non-trainable params: 0\n","_________________________________________________________________\n","Epoch 1/20\n","1077/1077 [==============================] - 23s 21ms/step - loss: 0.8122 - 
…
k","timestamp":1645279552863,"user_tz":-180,"elapsed":6061647,"user":{"displayName":"Kirill Volkov","photoUrl":"https://lh3.googleusercontent.com/a/default-user=s64","userId":"09167675469754145494"}},"outputId":"765ab2a9-9bed-475e-dc9b-62d27731aed3"},"execution_count":45,"outputs":[{"output_type":"stream","name":"stdout","text":["Model: \"sequential_14\"\n","_________________________________________________________________\n"," Layer (type)                Output Shape              Param #   \n","=================================================================\n"," embedding_14 (Embedding)    (None, 1000, 200)         4000000   \n","                                                                 \n"," conv1d_20 (Conv1D)          (None, 331, 128)          256128    \n","                                                                 \n"," conv1d_21 (Conv1D)          (None, 108, 256)          327936    \n","                                                                 \n"," global_max_pooling1d_9 (Glo  (None, 256)              0         \n"," balMaxPooling1D)                                                \n","                                                                 \n"," flatten_12 (Flatten)        (None, 256)               0         \n","                                                                 \n"," batch_normalization_20 (Bat  (None, 256)              1024      \n"," chNormalization)                                                \n","                                                                 \n"," dense_25 (Dense)            (None, 200)               51400     \n","                                                                 \n"," dropout_16 (Dropout)        (None, 200)               0         \n","                                                                 \n"," dense_26 (Dense)            (None, 200)               40200     \n","                                                                 \n"," dropout_17 (Dropout)        (None, 200)               0         \n","                                                                 \n"," dense_27 (Dense)            (None, 20)                4020      \n","                                                                 \n","=================================================================\n","Total params: 4,680,708\n","Trainable params: 4,680,196\n","Non-trainable params: 512\n","_________________________________________________________________\n","Epoch 1/10\n","270/270 [==============================] - 600s 2s/step - loss: 1.7462 - a
…
