…
test_01, y_test,\n","                         epochs=20,\n","                         batch_size=32,\n","                         cm_size=(16, 16),\n","                         class_labels=CLASS_LIST,\n","                         title='BoW + dense')"],"execution_count":20,"outputs":[{"output_type":"stream","name":"stdout","text":["Model: \"sequential\"\n","_________________________________________________________________\n"," Layer (type)                Output Shape              Param #   \n","=================================================================\n"," dense (Dense)               (None, 100)               3000100   \n","                                                                 \n"," dropout (Dropout)           (None, 100)               0         \n","                                                                 \n"," dense_1 (Dense)             (None, 100)               10100     \n","                                                                 \n"," dropout_1 (Dropout)         (None, 100)               0         \n","                                                                 \n"," dense_2 (Dense)             (None, 100)               10100     \n","                                                                 \n"," dropout_2 (Dropout)         (None, 100)               0         \n","                                                                 \n"," dense_3 (Dense)             (None, 22)                2222      \n","                                                                 \n","=================================================================\n","Total params: 3,022,522\n","Trainable params: 3,022,522\n","Non-trainable params: 0\n","_________________________________________________________________\n","Epoch 1/20\n","252/252 [==============================] - 5s 10ms/step - loss: 2.1815 - acc
…
 y_test,\n","                         epochs=20,\n","                         batch_size=32,\n","                         cm_size=(16, 16),\n","                         class_labels=CLASS_LIST,\n","                         title='Embedding + dense')"],"execution_count":25,"outputs":[{"output_type":"stream","name":"stdout","text":["Model: \"sequential_1\"\n","_________________________________________________________________\n"," Layer (type)                Output Shape              Param #   \n","=================================================================\n"," embedding (Embedding)       (None, 400, 50)           1500000   \n","                                                                 \n"," spatial_dropout1d (SpatialD  (None, 400, 50)          0         \n"," ropout1D)                                                       \n","                                                                 \n"," flatten (Flatten)           (None, 20000)             0         \n","                                                                 \n"," batch_normalization (BatchN  (None, 20000)            80000     \n"," ormalization)                                                   \n","                                                                 \n"," dense_4 (Dense)             (None, 64)                1280064   \n","                                                                 \n"," dropout_3 (Dropout)         (None, 64)                0         \n","                                                                 \n"," batch_normalization_1 (Batc  (None, 64)               256       \n"," hNormalization)                                                 \n","                                                                 \n"," dense_5 (Dense)             (None, 22)                1430      \n","                                                                 \n","=================================================================\n","Total params: 2,861,750\n","Trainable params: 2,821,622\n","Non-trainable params: 40,128\n","_________________________________________________________________\n","Epoch 1/20\n","252/252 [==============================] - 5s 13ms/step - loss: 3.0179 
…
st_01, y_test,\n","                         epochs=20,\n","                         batch_size=32,\n","                         cm_size=(16, 16),\n","                         class_labels=CLASS_LIST,\n","                         title='BoW + dense')"],"execution_count":36,"outputs":[{"output_type":"stream","name":"stdout","text":["Model: \"sequential_2\"\n","_________________________________________________________________\n"," Layer (type)                Output Shape              Param #   \n","=================================================================\n"," dense_6 (Dense)             (None, 100)               3000100   \n","                                                                 \n"," dropout_4 (Dropout)         (None, 100)               0         \n","                                                                 \n"," dense_7 (Dense)             (None, 100)               10100     \n","                                                                 \n"," dropout_5 (Dropout)         (None, 100)               0         \n","                                                                 \n"," dense_8 (Dense)             (None, 100)               10100     \n","                                                                 \n"," dropout_6 (Dropout)         (None, 100)               0         \n","                                                                 \n"," dense_9 (Dense)             (None, 10)                1010      \n","                                                                 \n","=================================================================\n","Total params: 3,021,310\n","Trainable params: 3,021,310\n","Non-trainable params: 0\n","_________________________________________________________________\n","Epoch 1/20\n","82/82 [==============================] - 2s 11ms/step - loss: 2.2357 - accur
…
 y_test,\n","                         epochs=20,\n","                         batch_size=32,\n","                         cm_size=(16, 16),\n","                         class_labels=CLASS_LIST,\n","                         title='Embedding + dense')"],"execution_count":39,"outputs":[{"output_type":"stream","name":"stdout","text":["Model: \"sequential_3\"\n","_________________________________________________________________\n"," Layer (type)                Output Shape              Param #   \n","=================================================================\n"," embedding_1 (Embedding)     (None, 400, 50)           1500000   \n","                                                                 \n"," spatial_dropout1d_1 (Spatia  (None, 400, 50)          0         \n"," lDropout1D)                                                     \n","                                                                 \n"," flatten_1 (Flatten)         (None, 20000)             0         \n","                                                                 \n"," batch_normalization_2 (Batc  (None, 20000)            80000     \n"," hNormalization)                                                 \n","                                                                 \n"," dense_10 (Dense)            (None, 64)                1280064   \n","                                                                 \n"," dropout_7 (Dropout)         (None, 64)                0         \n","                                                                 \n"," batch_normalization_3 (Batc  (None, 64)               256       \n"," hNormalization)                                                 \n","                                                                 \n"," dense_11 (Dense)            (None, 10)                650       \n","                                                                 \n","=================================================================\n","Total params: 2,860,970\n","Trainable params: 2,820,842\n","Non-trainable params: 40,128\n","_________________________________________________________________\n","Epoch 1/20\n","82/82 [==============================] - 2s 14ms/step - loss: 2.6715 -
…
